…
10000 test samples
y_train shape: (50000, 1)
Learning rate:  0.001
Model: "model_2"
__________________________________________________________________________________________________
Layer (type)                    Output Shape         Param #     Connected to                     
==================================================================================================
input_1 (InputLayer)            [(None, 32, 32, 3)]  0                                            
__________________________________________________________________________________________________
conv2d (Conv2D)                 (None, 32, 32, 16)   448         input_1[0][0]                    
__________________________________________________________________________________________________
conv2d_33 (Conv2D)              (None, 32, 32, 16)   448         input_1[0][0]                    
__________________________________________________________________________________________________
batch_normalization (BatchNorma (None, 32, 32, 16)   64          conv2d[0][0]                     
__________________________________________________________________________________________________
batch_normalization_31 (BatchNo (None, 32, 32, 16)   64          conv2d_33[0][0]                  
__________________________________________________________________________________________________
activation (Activation)         (None, 32, 32, 16)   0           batch_normalization[0][0]        
__________________________________________________________________________________________________
activation_32 (Activation)      (None, 32, 32, 16)   0           batch_normalization_31[0][0]     
__________________________________________________________________________________________________
conv2d_1 (Conv2D)               (None, 32, 32, 16)   2320        activation[0][0]                 
__________________________________________________________________________________________________
conv2d_34 (Conv2D)              (None, 32, 32, 16)   2320        activation_32[0][0]              
__________________________________________________________________________________________________
batch_normalization_1 (BatchNor (None, 32, 32, 16)   64          conv2d_1[0][0]                   
__________________________________________________________________________________________________
batch_normalization_32 (BatchNo (None, 32, 32, 16)   64          conv2d_34[0][0]                  
__________________________________________________________________________________________________
activation_1 (Activation)       (None, 32, 32, 16)   0           batch_normalization_1[0][0]      
__________________________________________________________________________________________________
activation_33 (Activation)      (None, 32, 32, 16)   0           batch_normalization_32[0][0]     
__________________________________________________________________________________________________
conv2d_2 (Conv2D)               (None, 32, 32, 16)   2320        activation_1[0][0]               
__________________________________________________________________________________________________
conv2d_35 (Conv2D)              (None, 32, 32, 16)   2320        activation_33[0][0]              
__________________________________________________________________________________________________
batch_normalization_2 (BatchNor (None, 32, 32, 16)   64          conv2d_2[0][0]                   
__________________________________________________________________________________________________
batch_normalization_33 (BatchNo (None, 32, 32, 16)   64          conv2d_35[0][0]                  
__________________________________________________________________________________________________
add (Add)                       (None, 32, 32, 16)   0           activation[0][0]                 
                                                                 batch_normalization_2[0][0]      
__________________________________________________________________________________________________
add_15 (Add)                    (None, 32, 32, 16)   0           activation_32[0][0]              
                                                                 batch_normalization_33[0][0]     
__________________________________________________________________________________________________
activation_2 (Activation)       (None, 32, 32, 16)   0           add[0][0]                        
__________________________________________________________________________________________________
activation_34 (Activation)      (None, 32, 32, 16)   0           add_15[0][0]                     
__________________________________________________________________________________________________
conv2d_3 (Conv2D)               (None, 32, 32, 16)   2320        activation_2[0][0]               
__________________________________________________________________________________________________
conv2d_36 (Conv2D)              (None, 32, 32, 16)   2320        activation_34[0][0]              
__________________________________________________________________________________________________
batch_normalization_3 (BatchNor (None, 32, 32, 16)   64          conv2d_3[0][0]                   
__________________________________________________________________________________________________
batch_normalization_34 (BatchNo (None, 32, 32, 16)   64          conv2d_36[0][0]                  
__________________________________________________________________________________________________
activation_3 (Activation)       (None, 32, 32, 16)   0           batch_normalization_3[0][0]      
__________________________________________________________________________________________________
activation_35 (Activation)      (None, 32, 32, 16)   0           batch_normalization_34[0][0]     
__________________________________________________________________________________________________
conv2d_4 (Conv2D)               (None, 32, 32, 16)   2320        activation_3[0][0]               
__________________________________________________________________________________________________
conv2d_37 (Conv2D)              (None, 32, 32, 16)   2320        activation_35[0][0]              
__________________________________________________________________________________________________
batch_normalization_4 (BatchNor (None, 32, 32, 16)   64          conv2d_4[0][0]                   
__________________________________________________________________________________________________
batch_normalization_35 (BatchNo (None, 32, 32, 16)   64          conv2d_37[0][0]                  
__________________________________________________________________________________________________
add_1 (Add)                     (None, 32, 32, 16)   0           activation_2[0][0]               
                                                                 batch_normalization_4[0][0]      
__________________________________________________________________________________________________
add_16 (Add)                    (None, 32, 32, 16)   0           activation_34[0][0]              
                                                                 batch_normalization_35[0][0]     
__________________________________________________________________________________________________
activation_4 (Activation)       (None, 32, 32, 16)   0           add_1[0][0]                      
__________________________________________________________________________________________________
activation_36 (Activation)      (None, 32, 32, 16)   0           add_16[0][0]                     
__________________________________________________________________________________________________
conv2d_5 (Conv2D)               (None, 32, 32, 16)   2320        activation_4[0][0]               
__________________________________________________________________________________________________
conv2d_38 (Conv2D)              (None, 32, 32, 16)   2320        activation_36[0][0]              
__________________________________________________________________________________________________
batch_normalization_5 (BatchNor (None, 32, 32, 16)   64          conv2d_5[0][0]                   
__________________________________________________________________________________________________
batch_normalization_36 (BatchNo (None, 32, 32, 16)   64          conv2d_38[0][0]                  
__________________________________________________________________________________________________
activation_5 (Activation)       (None, 32, 32, 16)   0           batch_normalization_5[0][0]      
__________________________________________________________________________________________________
activation_37 (Activation)      (None, 32, 32, 16)   0           batch_normalization_36[0][0]     
__________________________________________________________________________________________________
conv2d_6 (Conv2D)               (None, 32, 32, 16)   2320        activation_5[0][0]               
__________________________________________________________________________________________________
conv2d_39 (Conv2D)              (None, 32, 32, 16)   2320        activation_37[0][0]              
__________________________________________________________________________________________________
batch_normalization_6 (BatchNor (None, 32, 32, 16)   64          conv2d_6[0][0]                   
__________________________________________________________________________________________________
batch_normalization_37 (BatchNo (None, 32, 32, 16)   64          conv2d_39[0][0]                  
__________________________________________________________________________________________________
add_2 (Add)                     (None, 32, 32, 16)   0           activation_4[0][0]               
                                                                 batch_normalization_6[0][0]      
__________________________________________________________________________________________________
add_17 (Add)                    (None, 32, 32, 16)   0           activation_36[0][0]              
                                                                 batch_normalization_37[0][0]     
__________________________________________________________________________________________________
activation_6 (Activation)       (None, 32, 32, 16)   0           add_2[0][0]                      
__________________________________________________________________________________________________
activation_38 (Activation)      (None, 32, 32, 16)   0           add_17[0][0]                     
__________________________________________________________________________________________________
conv2d_7 (Conv2D)               (None, 32, 32, 16)   2320        activation_6[0][0]               
__________________________________________________________________________________________________
conv2d_40 (Conv2D)              (None, 32, 32, 16)   2320        activation_38[0][0]              
__________________________________________________________________________________________________
batch_normalization_7 (BatchNor (None, 32, 32, 16)   64          conv2d_7[0][0]                   
__________________________________________________________________________________________________
batch_normalization_38 (BatchNo (None, 32, 32, 16)   64          conv2d_40[0][0]                  
__________________________________________________________________________________________________
activation_7 (Activation)       (None, 32, 32, 16)   0           batch_normalization_7[0][0]      
__________________________________________________________________________________________________
activation_39 (Activation)      (None, 32, 32, 16)   0           batch_normalization_38[0][0]     
__________________________________________________________________________________________________
conv2d_8 (Conv2D)               (None, 32, 32, 16)   2320        activation_7[0][0]               
__________________________________________________________________________________________________
conv2d_41 (Conv2D)              (None, 32, 32, 16)   2320        activation_39[0][0]              
__________________________________________________________________________________________________
batch_normalization_8 (BatchNor (None, 32, 32, 16)   64          conv2d_8[0][0]                   
__________________________________________________________________________________________________
batch_normalization_39 (BatchNo (None, 32, 32, 16)   64          conv2d_41[0][0]                  
__________________________________________________________________________________________________
add_3 (Add)                     (None, 32, 32, 16)   0           activation_6[0][0]               
                                                                 batch_normalization_8[0][0]      
__________________________________________________________________________________________________
add_18 (Add)                    (None, 32, 32, 16)   0           activation_38[0][0]              
                                                                 batch_normalization_39[0][0]     
__________________________________________________________________________________________________
activation_8 (Activation)       (None, 32, 32, 16)   0           add_3[0][0]                      
__________________________________________________________________________________________________
activation_40 (Activation)      (None, 32, 32, 16)   0           add_18[0][0]                     
__________________________________________________________________________________________________
conv2d_9 (Conv2D)               (None, 32, 32, 16)   2320        activation_8[0][0]               
__________________________________________________________________________________________________
conv2d_42 (Conv2D)              (None, 32, 32, 16)   2320        activation_40[0][0]              
__________________________________________________________________________________________________
batch_normalization_9 (BatchNor (None, 32, 32, 16)   64          conv2d_9[0][0]                   
__________________________________________________________________________________________________
batch_normalization_40 (BatchNo (None, 32, 32, 16)   64          conv2d_42[0][0]                  
__________________________________________________________________________________________________
activation_9 (Activation)       (None, 32, 32, 16)   0           batch_normalization_9[0][0]      
__________________________________________________________________________________________________
activation_41 (Activation)      (None, 32, 32, 16)   0           batch_normalization_40[0][0]     
__________________________________________________________________________________________________
conv2d_10 (Conv2D)              (None, 32, 32, 16)   2320        activation_9[0][0]               
__________________________________________________________________________________________________
conv2d_43 (Conv2D)              (None, 32, 32, 16)   2320        activation_41[0][0]              
__________________________________________________________________________________________________
batch_normalization_10 (BatchNo (None, 32, 32, 16)   64          conv2d_10[0][0]                  
__________________________________________________________________________________________________
batch_normalization_41 (BatchNo (None, 32, 32, 16)   64          conv2d_43[0][0]                  
__________________________________________________________________________________________________
add_4 (Add)                     (None, 32, 32, 16)   0           activation_8[0][0]               
                                                                 batch_normalization_10[0][0]     
__________________________________________________________________________________________________
add_19 (Add)                    (None, 32, 32, 16)   0           activation_40[0][0]              
                                                                 batch_normalization_41[0][0]     
__________________________________________________________________________________________________
activation_10 (Activation)      (None, 32, 32, 16)   0           add_4[0][0]                      
__________________________________________________________________________________________________
activation_42 (Activation)      (None, 32, 32, 16)   0           add_19[0][0]                     
__________________________________________________________________________________________________
conv2d_11 (Conv2D)              (None, 16, 16, 32)   4640        activation_10[0][0]              
__________________________________________________________________________________________________
conv2d_44 (Conv2D)              (None, 16, 16, 32)   4640        activation_42[0][0]              
__________________________________________________________________________________________________
batch_normalization_11 (BatchNo (None, 16, 16, 32)   128         conv2d_11[0][0]                  
__________________________________________________________________________________________________
batch_normalization_42 (BatchNo (None, 16, 16, 32)   128         conv2d_44[0][0]                  
__________________________________________________________________________________________________
activation_11 (Activation)      (None, 16, 16, 32)   0           batch_normalization_11[0][0]     
__________________________________________________________________________________________________
activation_43 (Activation)      (None, 16, 16, 32)   0           batch_normalization_42[0][0]     
__________________________________________________________________________________________________
conv2d_12 (Conv2D)              (None, 16, 16, 32)   9248        activation_11[0][0]              
__________________________________________________________________________________________________
conv2d_45 (Conv2D)              (None, 16, 16, 32)   9248        activation_43[0][0]              
__________________________________________________________________________________________________
conv2d_13 (Conv2D)              (None, 16, 16, 32)   544         activation_10[0][0]              
__________________________________________________________________________________________________
batch_normalization_12 (BatchNo (None, 16, 16, 32)   128         conv2d_12[0][0]                  
__________________________________________________________________________________________________
conv2d_46 (Conv2D)              (None, 16, 16, 32)   544         activation_42[0][0]              
__________________________________________________________________________________________________
batch_normalization_43 (BatchNo (None, 16, 16, 32)   128         conv2d_45[0][0]                  
__________________________________________________________________________________________________
add_5 (Add)                     (None, 16, 16, 32)   0           conv2d_13[0][0]                  
                                                                 batch_normalization_12[0][0]     
__________________________________________________________________________________________________
add_20 (Add)                    (None, 16, 16, 32)   0           conv2d_46[0][0]                  
                                                                 batch_normalization_43[0][0]     
__________________________________________________________________________________________________
activation_12 (Activation)      (None, 16, 16, 32)   0           add_5[0][0]                      
__________________________________________________________________________________________________
activation_44 (Activation)      (None, 16, 16, 32)   0           add_20[0][0]                     
__________________________________________________________________________________________________
conv2d_14 (Conv2D)              (None, 16, 16, 32)   9248        activation_12[0][0]              
__________________________________________________________________________________________________
conv2d_47 (Conv2D)              (None, 16, 16, 32)   9248        activation_44[0][0]              
__________________________________________________________________________________________________
batch_normalization_13 (BatchNo (None, 16, 16, 32)   128         conv2d_14[0][0]                  
__________________________________________________________________________________________________
batch_normalization_44 (BatchNo (None, 16, 16, 32)   128         conv2d_47[0][0]                  
__________________________________________________________________________________________________
activation_13 (Activation)      (None, 16, 16, 32)   0           batch_normalization_13[0][0]     
__________________________________________________________________________________________________
activation_45 (Activation)      (None, 16, 16, 32)   0           batch_normalization_44[0][0]     
__________________________________________________________________________________________________
conv2d_15 (Conv2D)              (None, 16, 16, 32)   9248        activation_13[0][0]              
__________________________________________________________________________________________________
conv2d_48 (Conv2D)              (None, 16, 16, 32)   9248        activation_45[0][0]              
__________________________________________________________________________________________________
batch_normalization_14 (BatchNo (None, 16, 16, 32)   128         conv2d_15[0][0]                  
__________________________________________________________________________________________________
batch_normalization_45 (BatchNo (None, 16, 16, 32)   128         conv2d_48[0][0]                  
__________________________________________________________________________________________________
add_6 (Add)                     (None, 16, 16, 32)   0           activation_12[0][0]              
                                                                 batch_normalization_14[0][0]     
__________________________________________________________________________________________________
add_21 (Add)                    (None, 16, 16, 32)   0           activation_44[0][0]              
                                                                 batch_normalization_45[0][0]     
__________________________________________________________________________________________________
activation_14 (Activation)      (None, 16, 16, 32)   0           add_6[0][0]                      
__________________________________________________________________________________________________
activation_46 (Activation)      (None, 16, 16, 32)   0           add_21[0][0]                     
__________________________________________________________________________________________________
conv2d_16 (Conv2D)              (None, 16, 16, 32)   9248        activation_14[0][0]              
__________________________________________________________________________________________________
conv2d_49 (Conv2D)              (None, 16, 16, 32)   9248        activation_46[0][0]              
__________________________________________________________________________________________________
batch_normalization_15 (BatchNo (None, 16, 16, 32)   128         conv2d_16[0][0]                  
__________________________________________________________________________________________________
batch_normalization_46 (BatchNo (None, 16, 16, 32)   128         conv2d_49[0][0]                  
__________________________________________________________________________________________________
activation_15 (Activation)      (None, 16, 16, 32)   0           batch_normalization_15[0][0]     
__________________________________________________________________________________________________
activation_47 (Activation)      (None, 16, 16, 32)   0           batch_normalization_46[0][0]     
__________________________________________________________________________________________________
conv2d_17 (Conv2D)              (None, 16, 16, 32)   9248        activation_15[0][0]              
__________________________________________________________________________________________________
conv2d_50 (Conv2D)              (None, 16, 16, 32)   9248        activation_47[0][0]              
__________________________________________________________________________________________________
batch_normalization_16 (BatchNo (None, 16, 16, 32)   128         conv2d_17[0][0]                  
__________________________________________________________________________________________________
batch_normalization_47 (BatchNo (None, 16, 16, 32)   128         conv2d_50[0][0]                  
__________________________________________________________________________________________________
add_7 (Add)                     (None, 16, 16, 32)   0           activation_14[0][0]              
                                                                 batch_normalization_16[0][0]     
__________________________________________________________________________________________________
add_22 (Add)                    (None, 16, 16, 32)   0           activation_46[0][0]              
                                                                 batch_normalization_47[0][0]     
__________________________________________________________________________________________________
activation_16 (Activation)      (None, 16, 16, 32)   0           add_7[0][0]                      
__________________________________________________________________________________________________
activation_48 (Activation)      (None, 16, 16, 32)   0           add_22[0][0]                     
__________________________________________________________________________________________________
conv2d_18 (Conv2D)              (None, 16, 16, 32)   9248        activation_16[0][0]              
__________________________________________________________________________________________________
conv2d_51 (Conv2D)              (None, 16, 16, 32)   9248        activation_48[0][0]              
__________________________________________________________________________________________________
batch_normalization_17 (BatchNo (None, 16, 16, 32)   128         conv2d_18[0][0]                  
__________________________________________________________________________________________________
batch_normalization_48 (BatchNo (None, 16, 16, 32)   128         conv2d_51[0][0]                  
__________________________________________________________________________________________________
activation_17 (Activation)      (None, 16, 16, 32)   0           batch_normalization_17[0][0]     
__________________________________________________________________________________________________
activation_49 (Activation)      (None, 16, 16, 32)   0           batch_normalization_48[0][0]     
__________________________________________________________________________________________________
conv2d_19 (Conv2D)              (None, 16, 16, 32)   9248        activation_17[0][0]              
__________________________________________________________________________________________________
conv2d_52 (Conv2D)              (None, 16, 16, 32)   9248        activation_49[0][0]              
__________________________________________________________________________________________________
batch_normalization_18 (BatchNo (None, 16, 16, 32)   128         conv2d_19[0][0]                  
__________________________________________________________________________________________________
batch_normalization_49 (BatchNo (None, 16, 16, 32)   128         conv2d_52[0][0]                  
__________________________________________________________________________________________________
add_8 (Add)                     (None, 16, 16, 32)   0           activation_16[0][0]              
                                                                 batch_normalization_18[0][0]     
__________________________________________________________________________________________________
add_23 (Add)                    (None, 16, 16, 32)   0           activation_48[0][0]              
                                                                 batch_normalization_49[0][0]     
__________________________________________________________________________________________________
activation_18 (Activation)      (None, 16, 16, 32)   0           add_8[0][0]                      
__________________________________________________________________________________________________
activation_50 (Activation)      (None, 16, 16, 32)   0           add_23[0][0]                     
__________________________________________________________________________________________________
conv2d_20 (Conv2D)              (None, 16, 16, 32)   9248        activation_18[0][0]              
__________________________________________________________________________________________________
conv2d_53 (Conv2D)              (None, 16, 16, 32)   9248        activation_50[0][0]              
__________________________________________________________________________________________________
batch_normalization_19 (BatchNo (None, 16, 16, 32)   128         conv2d_20[0][0]                  
__________________________________________________________________________________________________
batch_normalization_50 (BatchNo (None, 16, 16, 32)   128         conv2d_53[0][0]                  
__________________________________________________________________________________________________
activation_19 (Activation)      (None, 16, 16, 32)   0           batch_normalization_19[0][0]     
__________________________________________________________________________________________________
activation_51 (Activation)      (None, 16, 16, 32)   0           batch_normalization_50[0][0]     
__________________________________________________________________________________________________
conv2d_21 (Conv2D)              (None, 16, 16, 32)   9248        activation_19[0][0]              
__________________________________________________________________________________________________
conv2d_54 (Conv2D)              (None, 16, 16, 32)   9248        activation_51[0][0]              
__________________________________________________________________________________________________
batch_normalization_20 (BatchNo (None, 16, 16, 32)   128         conv2d_21[0][0]                  
__________________________________________________________________________________________________
batch_normalization_51 (BatchNo (None, 16, 16, 32)   128         conv2d_54[0][0]                  
__________________________________________________________________________________________________
add_9 (Add)                     (None, 16, 16, 32)   0           activation_18[0][0]              
                                                                 batch_normalization_20[0][0]     
__________________________________________________________________________________________________
add_24 (Add)                    (None, 16, 16, 32)   0           activation_50[0][0]              
                                                                 batch_normalization_51[0][0]     
__________________________________________________________________________________________________
activation_20 (Activation)      (None, 16, 16, 32)   0           add_9[0][0]                      
__________________________________________________________________________________________________
activation_52 (Activation)      (None, 16, 16, 32)   0           add_24[0][0]                     
__________________________________________________________________________________________________
conv2d_22 (Conv2D)              (None, 8, 8, 64)     18496       activation_20[0][0]              
__________________________________________________________________________________________________
conv2d_55 (Conv2D)              (None, 8, 8, 64)     18496       activation_52[0][0]              
__________________________________________________________________________________________________
batch_normalization_21 (BatchNo (None, 8, 8, 64)     256         conv2d_22[0][0]                  
__________________________________________________________________________________________________
batch_normalization_52 (BatchNo (None, 8, 8, 64)     256         conv2d_55[0][0]                  
__________________________________________________________________________________________________
activation_21 (Activation)      (None, 8, 8, 64)     0           batch_normalization_21[0][0]     
__________________________________________________________________________________________________
activation_53 (Activation)      (None, 8, 8, 64)     0           batch_normalization_52[0][0]     
__________________________________________________________________________________________________
conv2d_23 (Conv2D)              (None, 8, 8, 64)     36928       activation_21[0][0]              
__________________________________________________________________________________________________
conv2d_56 (Conv2D)              (None, 8, 8, 64)     36928       activation_53[0][0]              
__________________________________________________________________________________________________
conv2d_24 (Conv2D)              (None, 8, 8, 64)     2112        activation_20[0][0]              
__________________________________________________________________________________________________
batch_normalization_22 (BatchNo (None, 8, 8, 64)     256         conv2d_23[0][0]                  
__________________________________________________________________________________________________
conv2d_57 (Conv2D)              (None, 8, 8, 64)     2112        activation_52[0][0]              
__________________________________________________________________________________________________
batch_normalization_53 (BatchNo (None, 8, 8, 64)     256         conv2d_56[0][0]                  
__________________________________________________________________________________________________
add_10 (Add)                    (None, 8, 8, 64)     0           conv2d_24[0][0]                  
                                                                 batch_normalization_22[0][0]     
__________________________________________________________________________________________________
add_25 (Add)                    (None, 8, 8, 64)     0           conv2d_57[0][0]                  
                                                                 batch_normalization_53[0][0]     
__________________________________________________________________________________________________
activation_22 (Activation)      (None, 8, 8, 64)     0           add_10[0][0]                     
__________________________________________________________________________________________________
activation_54 (Activation)      (None, 8, 8, 64)     0           add_25[0][0]                     
__________________________________________________________________________________________________
conv2d_25 (Conv2D)              (None, 8, 8, 64)     36928       activation_22[0][0]              
__________________________________________________________________________________________________
conv2d_58 (Conv2D)              (None, 8, 8, 64)     36928       activation_54[0][0]              
__________________________________________________________________________________________________
batch_normalization_23 (BatchNo (None, 8, 8, 64)     256         conv2d_25[0][0]                  
__________________________________________________________________________________________________
batch_normalization_54 (BatchNo (None, 8, 8, 64)     256         conv2d_58[0][0]                  
__________________________________________________________________________________________________
activation_23 (Activation)      (None, 8, 8, 64)     0           batch_normalization_23[0][0]     
__________________________________________________________________________________________________
activation_55 (Activation)      (None, 8, 8, 64)     0           batch_normalization_54[0][0]     
__________________________________________________________________________________________________
conv2d_26 (Conv2D)              (None, 8, 8, 64)     36928       activation_23[0][0]              
__________________________________________________________________________________________________
conv2d_59 (Conv2D)              (None, 8, 8, 64)     36928       activation_55[0][0]              
__________________________________________________________________________________________________
batch_normalization_24 (BatchNo (None, 8, 8, 64)     256         conv2d_26[0][0]                  
__________________________________________________________________________________________________
batch_normalization_55 (BatchNo (None, 8, 8, 64)     256         conv2d_59[0][0]                  
__________________________________________________________________________________________________
add_11 (Add)                    (None, 8, 8, 64)     0           activation_22[0][0]              
                                                                 batch_normalization_24[0][0]     
__________________________________________________________________________________________________
add_26 (Add)                    (None, 8, 8, 64)     0           activation_54[0][0]              
                                                                 batch_normalization_55[0][0]     
__________________________________________________________________________________________________
activation_24 (Activation)      (None, 8, 8, 64)     0           add_11[0][0]                     
__________________________________________________________________________________________________
activation_56 (Activation)      (None, 8, 8, 64)     0           add_26[0][0]                     
__________________________________________________________________________________________________
conv2d_27 (Conv2D)              (None, 8, 8, 64)     36928       activation_24[0][0]              
__________________________________________________________________________________________________
conv2d_60 (Conv2D)              (None, 8, 8, 64)     36928       activation_56[0][0]              
__________________________________________________________________________________________________
batch_normalization_25 (BatchNo (None, 8, 8, 64)     256         conv2d_27[0][0]                  
__________________________________________________________________________________________________
batch_normalization_56 (BatchNo (None, 8, 8, 64)     256         conv2d_60[0][0]                  
__________________________________________________________________________________________________
activation_25 (Activation)      (None, 8, 8, 64)     0           batch_normalization_25[0][0]     
__________________________________________________________________________________________________
activation_57 (Activation)      (None, 8, 8, 64)     0           batch_normalization_56[0][0]     
__________________________________________________________________________________________________
conv2d_28 (Conv2D)              (None, 8, 8, 64)     36928       activation_25[0][0]              
__________________________________________________________________________________________________
conv2d_61 (Conv2D)              (None, 8, 8, 64)     36928       activation_57[0][0]              
__________________________________________________________________________________________________
batch_normalization_26 (BatchNo (None, 8, 8, 64)     256         conv2d_28[0][0]                  
__________________________________________________________________________________________________
batch_normalization_57 (BatchNo (None, 8, 8, 64)     256         conv2d_61[0][0]                  
__________________________________________________________________________________________________
add_12 (Add)                    (None, 8, 8, 64)     0           activation_24[0][0]              
                                                                 batch_normalization_26[0][0]     
__________________________________________________________________________________________________
add_27 (Add)                    (None, 8, 8, 64)     0           activation_56[0][0]              
                                                                 batch_normalization_57[0][0]     
__________________________________________________________________________________________________
activation_26 (Activation)      (None, 8, 8, 64)     0           add_12[0][0]                     
__________________________________________________________________________________________________
activation_58 (Activation)      (None, 8, 8, 64)     0           add_27[0][0]                     
__________________________________________________________________________________________________
conv2d_29 (Conv2D)              (None, 8, 8, 64)     36928       activation_26[0][0]              
__________________________________________________________________________________________________
conv2d_62 (Conv2D)              (None, 8, 8, 64)     36928       activation_58[0][0]              
__________________________________________________________________________________________________
batch_normalization_27 (BatchNo (None, 8, 8, 64)     256         conv2d_29[0][0]                  
__________________________________________________________________________________________________
batch_normalization_58 (BatchNo (None, 8, 8, 64)     256         conv2d_62[0][0]                  
__________________________________________________________________________________________________
activation_27 (Activation)      (None, 8, 8, 64)     0           batch_normalization_27[0][0]     
__________________________________________________________________________________________________
activation_59 (Activation)      (None, 8, 8, 64)     0           batch_normalization_58[0][0]     
__________________________________________________________________________________________________
conv2d_30 (Conv2D)              (None, 8, 8, 64)     36928       activation_27[0][0]              
__________________________________________________________________________________________________
conv2d_63 (Conv2D)              (None, 8, 8, 64)     36928       activation_59[0][0]              
__________________________________________________________________________________________________
batch_normalization_28 (BatchNo (None, 8, 8, 64)     256         conv2d_30[0][0]                  
__________________________________________________________________________________________________
batch_normalization_59 (BatchNo (None, 8, 8, 64)     256         conv2d_63[0][0]                  
__________________________________________________________________________________________________
add_13 (Add)                    (None, 8, 8, 64)     0           activation_26[0][0]              
                                                                 batch_normalization_28[0][0]     
__________________________________________________________________________________________________
add_28 (Add)                    (None, 8, 8, 64)     0           activation_58[0][0]              
                                                                 batch_normalization_59[0][0]     
__________________________________________________________________________________________________
activation_28 (Activation)      (None, 8, 8, 64)     0           add_13[0][0]                     
__________________________________________________________________________________________________
activation_60 (Activation)      (None, 8, 8, 64)     0           add_28[0][0]                     
__________________________________________________________________________________________________
conv2d_31 (Conv2D)              (None, 8, 8, 64)     36928       activation_28[0][0]              
__________________________________________________________________________________________________
conv2d_64 (Conv2D)              (None, 8, 8, 64)     36928       activation_60[0][0]              
__________________________________________________________________________________________________
batch_normalization_29 (BatchNo (None, 8, 8, 64)     256         conv2d_31[0][0]                  
__________________________________________________________________________________________________
batch_normalization_60 (BatchNo (None, 8, 8, 64)     256         conv2d_64[0][0]                  
__________________________________________________________________________________________________
activation_29 (Activation)      (None, 8, 8, 64)     0           batch_normalization_29[0][0]     
__________________________________________________________________________________________________
activation_61 (Activation)      (None, 8, 8, 64)     0           batch_normalization_60[0][0]     
__________________________________________________________________________________________________
conv2d_32 (Conv2D)              (None, 8, 8, 64)     36928       activation_29[0][0]              
__________________________________________________________________________________________________
conv2d_65 (Conv2D)              (None, 8, 8, 64)     36928       activation_61[0][0]              
__________________________________________________________________________________________________
batch_normalization_30 (BatchNo (None, 8, 8, 64)     256         conv2d_32[0][0]                  
__________________________________________________________________________________________________
batch_normalization_61 (BatchNo (None, 8, 8, 64)     256         conv2d_65[0][0]                  
__________________________________________________________________________________________________
add_14 (Add)                    (None, 8, 8, 64)     0           activation_28[0][0]              
                                                                 batch_normalization_30[0][0]     
__________________________________________________________________________________________________
add_29 (Add)                    (None, 8, 8, 64)     0           activation_60[0][0]              
                                                                 batch_normalization_61[0][0]     
__________________________________________________________________________________________________
activation_30 (Activation)      (None, 8, 8, 64)     0           add_14[0][0]                     
__________________________________________________________________________________________________
activation_62 (Activation)      (None, 8, 8, 64)     0           add_29[0][0]                     
__________________________________________________________________________________________________
average_pooling2d (AveragePooli (None, 1, 1, 64)     0           activation_30[0][0]              
__________________________________________________________________________________________________
average_pooling2d_1 (AveragePoo (None, 1, 1, 64)     0           activation_62[0][0]              
__________________________________________________________________________________________________
flatten (Flatten)               (None, 64)           0           average_pooling2d[0][0]          
__________________________________________________________________________________________________
flatten_1 (Flatten)             (None, 64)           0           average_pooling2d_1[0][0]        
__________________________________________________________________________________________________
dense (Dense)                   (None, 10)           650         flatten[0][0]                    
__________________________________________________________________________________________________
dense_1 (Dense)                 (None, 10)           650         flatten_1[0][0]                  
__________________________________________________________________________________________________
activation_31 (Activation)      (None, 10)           0           dense[0][0]                      
__________________________________________________________________________________________________
activation_63 (Activation)      (None, 10)           0           dense_1[0][0]                    
__________________________________________________________________________________________________
concatenate (Concatenate)       (None, 20)           0           activation_31[0][0]              
                                                                 activation_63[0][0]              
==================================================================================================
Total params: 940,436
Trainable params: 935,892
Non-trainable params: 4,544
__________________________________________________________________________________________________
…
